{"class_name": "Sequential", "backend": "tensorflow", "keras_version": "2.1.6-tf", "config": {"layers": [{"class_name": "Embedding", "config": {"input_length": null, "activity_regularizer": null, "batch_input_shape": [null, null], "output_dim": 16, "name": "input", "input_dim": 100, "mask_zero": false, "trainable": true, "dtype": "float32", "embeddings_initializer": {"class_name": "RandomUniform", "config": {"seed": null, "dtype": "float32", "maxval": 0.05, "minval": -0.05}}, "embeddings_constraint": null, "embeddings_regularizer": null}}, {"class_name": "GlobalAveragePooling1D", "config": {"dtype": "float32", "name": "hiddenPool", "trainable": true}}, {"class_name": "Dense", "config": {"use_bias": true, "activity_regularizer": null, "kernel_constraint": null, "bias_regularizer": null, "units": 16, "activation": "relu", "kernel_initializer": {"class_name": "VarianceScaling", "config": {"mode": "fan_avg", "scale": 1.0, "dtype": "float32", "distribution": "uniform", "seed": null}}, "kernel_regularizer": null, "name": "hidden_0", "trainable": true, "bias_initializer": {"class_name": "Zeros", "config": {"dtype": "float32"}}, "bias_constraint": null, "dtype": "float32"}}, {"class_name": "Dense", "config": {"use_bias": true, "activity_regularizer": null, "kernel_constraint": null, "bias_regularizer": null, "units": 16, "activation": "relu", "kernel_initializer": {"class_name": "VarianceScaling", "config": {"mode": "fan_avg", "scale": 1.0, "dtype": "float32", "distribution": "uniform", "seed": null}}, "kernel_regularizer": null, "name": "hidden_1", "trainable": true, "bias_initializer": {"class_name": "Zeros", "config": {"dtype": "float32"}}, "bias_constraint": null, "dtype": "float32"}}, {"class_name": "Dense", "config": {"use_bias": true, "activity_regularizer": null, "kernel_constraint": null, "bias_regularizer": null, "units": 5, "activation": "sigmoid", "kernel_initializer": {"class_name": "VarianceScaling", "config": {"mode": "fan_avg", "scale": 1.0, "dtype": "float32", "distribution": "uniform", "seed": null}}, "kernel_regularizer": null, "name": "output", "trainable": true, "bias_initializer": {"class_name": "Zeros", "config": {"dtype": "float32"}}, "bias_constraint": null, "dtype": "float32"}}], "name": "sequential"}}