{"config": {"name": "sequential", "layers": [{"config": {"batch_input_shape": [null, null], "output_dim": 16, "input_length": null, "dtype": "float32", "input_dim": 100, "name": "input", "mask_zero": false, "embeddings_constraint": null, "activity_regularizer": null, "trainable": true, "embeddings_regularizer": null, "embeddings_initializer": {"config": {"minval": -0.05, "seed": null, "maxval": 0.05, "dtype": "float32"}, "class_name": "RandomUniform"}}, "class_name": "Embedding"}, {"config": {"name": "hiddenPool", "trainable": true, "dtype": "float32"}, "class_name": "GlobalAveragePooling1D"}, {"config": {"kernel_constraint": null, "kernel_regularizer": null, "units": 16, "dtype": "float32", "activation": "relu", "bias_constraint": null, "name": "hidden_0", "use_bias": true, "kernel_initializer": {"config": {"seed": null, "mode": "fan_avg", "distribution": "uniform", "scale": 1.0, "dtype": "float32"}, "class_name": "VarianceScaling"}, "bias_initializer": {"config": {"dtype": "float32"}, "class_name": "Zeros"}, "activity_regularizer": null, "trainable": true, "bias_regularizer": null}, "class_name": "Dense"}, {"config": {"kernel_constraint": null, "kernel_regularizer": null, "units": 16, "dtype": "float32", "activation": "relu", "bias_constraint": null, "name": "hidden_1", "use_bias": true, "kernel_initializer": {"config": {"seed": null, "mode": "fan_avg", "distribution": "uniform", "scale": 1.0, "dtype": "float32"}, "class_name": "VarianceScaling"}, "bias_initializer": {"config": {"dtype": "float32"}, "class_name": "Zeros"}, "activity_regularizer": null, "trainable": true, "bias_regularizer": null}, "class_name": "Dense"}, {"config": {"kernel_constraint": null, "kernel_regularizer": null, "units": 5, "dtype": "float32", "activation": "sigmoid", "bias_constraint": null, "name": "output", "use_bias": true, "kernel_initializer": {"config": {"seed": null, "mode": "fan_avg", "distribution": "uniform", "scale": 1.0, "dtype": "float32"}, "class_name": "VarianceScaling"}, "bias_initializer": {"config": {"dtype": "float32"}, "class_name": "Zeros"}, "activity_regularizer": null, "trainable": true, "bias_regularizer": null}, "class_name": "Dense"}]}, "class_name": "Sequential", "keras_version": "2.1.6-tf", "backend": "tensorflow"}