{"backend": "tensorflow", "keras_version": "2.1.6-tf", "class_name": "Sequential", "config": {"name": "sequential", "layers": [{"class_name": "Embedding", "config": {"name": "input", "input_length": null, "dtype": "float32", "activity_regularizer": null, "embeddings_constraint": null, "mask_zero": false, "embeddings_regularizer": null, "trainable": true, "input_dim": 100, "batch_input_shape": [null, null], "embeddings_initializer": {"class_name": "RandomUniform", "config": {"maxval": 0.05, "minval": -0.05, "dtype": "float32", "seed": null}}, "output_dim": 16}}, {"class_name": "GlobalAveragePooling1D", "config": {"trainable": true, "name": "hiddenPool", "dtype": "float32"}}, {"class_name": "Dense", "config": {"name": "hidden_0", "kernel_initializer": {"class_name": "VarianceScaling", "config": {"mode": "fan_avg", "distribution": "uniform", "dtype": "float32", "scale": 1.0, "seed": null}}, "dtype": "float32", "bias_regularizer": null, "bias_initializer": {"class_name": "Zeros", "config": {"dtype": "float32"}}, "trainable": true, "use_bias": true, "kernel_constraint": null, "units": 16, "kernel_regularizer": null, "activation": "relu", "bias_constraint": null, "activity_regularizer": null}}, {"class_name": "Dense", "config": {"name": "hidden_1", "kernel_initializer": {"class_name": "VarianceScaling", "config": {"mode": "fan_avg", "distribution": "uniform", "dtype": "float32", "scale": 1.0, "seed": null}}, "dtype": "float32", "bias_regularizer": null, "bias_initializer": {"class_name": "Zeros", "config": {"dtype": "float32"}}, "trainable": true, "use_bias": true, "kernel_constraint": null, "units": 16, "kernel_regularizer": null, "activation": "relu", "bias_constraint": null, "activity_regularizer": null}}, {"class_name": "Dense", "config": {"name": "output", "kernel_initializer": {"class_name": "VarianceScaling", "config": {"mode": "fan_avg", "distribution": "uniform", "dtype": "float32", "scale": 1.0, "seed": null}}, "dtype": "float32", "bias_regularizer": null, "bias_initializer": {"class_name": "Zeros", "config": {"dtype": "float32"}}, "trainable": true, "use_bias": true, "kernel_constraint": null, "units": 5, "kernel_regularizer": null, "activation": "sigmoid", "bias_constraint": null, "activity_regularizer": null}}]}}